models/model_mexh.pkl (torch, 113114 bytes, 22 tensors)

conv1.weight f4 [16, 1, 7, 7]
000000 68 b5 a7 3d 91 ad 65 bd 71 c0 ad be b7 76 80 3d
       0.08188897 -0.05607373 -0.33935884 0.06272643
000010 9f cd 7b be 39 33 14 3e 13 f0 9e be bf 5e 00 be
       -0.24590157 0.14472665 -0.31042537 -0.12536143
000020 7b fa 33 be 4e be 09 bd 16 5b d8 3d b3 9b e5 3d
       -0.1757602 -0.033628754 0.10564248 0.11211338
000030 ab 66 91 3e 45 0f d6 bd ed 43 86 3c 8b 09 0c 3e
       0.28398642 -0.10452131 0.016389811 0.13675515
000040 c9 6b 1c 3e e6 e9 3d 3e 7c 2f 50 be 8a 5c 74 3e
       0.15275492 0.18546256 -0.20330614 0.23863426
000050 8f da ae 3e 1b fb f5 3e 7e 38 2a be 25 19 0f 3e
       0.34151122 0.4804314 -0.16623113 0.13974436
000060 7b 43 4a 3e 8b 21 ae 3d 72 c9 1a be 68 23 bf be
       0.19752304 0.085024916 -0.15115908 -0.373317
000070 0c f5 8e bd 8e 3d 74 bd 68 99 90 be 1b 17 5e 3e
       -0.06980333 -0.059629016 -0.2824204 0.21688502
000080 14 05 8c bd 4e 84 e1 bd a7 8d 48 be e2 8f 7e be
       -0.06836906 -0.11011563 -0.19585286 -0.24859574
000090 88 88 11 3e 5c 09 10 bd 86 dc c4 bb c8 6f 94 3d
       0.14212239 -0.035165176 -0.0060077338 0.07247883
0000a0 c6 e2 28 3d 2b e8 6d 3e 7c 3d 8c bd 0d 1e dc bb
       0.041231893 0.23233096 -0.06847665 -0.0067174495
0000b0 9a 52 3c 3e 12 58 4b be 6f 1f 37 3e bf 6b ae 3e
       0.18390885 -0.19857815 0.17883085 0.3406658
0000c0 49 af 39 bd eb ba 95 3e 74 35 88 be 6b a5 6c bd
       -0.04533318 0.2924417 -0.26603281 -0.057774942
0000d0 e3 ce 5a be 03 cf 8a bd 66 2d 0b 3e 88 0e 82 3e
       -0.21367984 -0.067777656 0.13591537 0.2540171
0000e0 e9 cb 12 3d a6 d2 7a bd c1 a9 87 be db ea b0 bd
       0.035838995 -0.061236046 -0.264967 -0.08638545
0000f0 62 d8 dd bc e1 b8 59 be 46 5a 67 be 62 60 a4 3e
       -0.027080718 -0.21261932 -0.2259303 0.32104784
000100 75 bf 5c bd 46 5e 62 bd 05 f5 07 3e 81 d3 4a be
       -0.053893525 -0.055265687 0.13277061 -0.19807245
000110 b2 31 72 be 7e 18 84 be 7f 1e 65 3e 2f bd 97 3c
       -0.2365177 -0.25799936 0.22374915 0.018522827
000120 fc 01 a9 be 51 ef df 3b 50 47 1f 3c 0d 49 d6 3d
       -0.33009326 0.0068339487 0.009721592 0.10463152
000130 6c b5 85 3c 5c 03 41 be ee 88 d8 3d d8 e4 93 3e
       0.01632186 -0.18848938 0.10572992 0.2888553
000140 45 f8 8a be 87 30 25 bd 20 65 5e 3e dc b6 8c 3d
       -0.2714254 -0.040329482 0.21718264 0.06870815
000150 70 4b 8a ba b0 89 21 be 09 17 9d be fc f2 a6 3e
       -0.0010551047 -0.1577518 -0.30681637 0.32607257
000160 3a 5f 69 3e 30 67 8d 3e 7a 22 87 3d a2 b3 e8 3d
       0.22790232 0.27617788 0.06598373 0.11362387
000170 91 8e a6 bc 3a a5 92 be dc 01 62 3d 46 bb 0a 3e
       -0.020331653 -0.28641683 0.055177554 0.13548002
000180 6c 2f aa be f8 fd e6 3d c9 9d 52 be 83 51 c4 bd
       -0.33239305 0.112789094 -0.20568003 -0.095858596
000190 56 3a a1 be 1c b4 64 be 99 74 c5 be 05 f2 d9 be
       -0.3148982 -0.22334331 -0.3856552 -0.4256746
0001a0 52 97 c2 bb 30 5b 0a 3e 90 73 39 be 1a 69 3f 3d
       -0.005938449 0.13511348 -0.1811049 0.046731092
0001b0 68 6d da bd 10 11 ed be 1d ce 82 be c7 98 2a 3e
       -0.10665399 -0.4630208 -0.25547877 0.16659842
0001c0 05 94 8a bd 5d 39 cd 3d 5c f5 40 bd 62 46 a7 be
       -0.06766514 0.10020707 -0.047108993 -0.32670885
0001d0 5e b6 07 3d b9 15 6f be a9 9e ab bd bc 5c b8 be
       0.033132903 -0.2334813 -0.083798714 -0.3600825
0001e0 6b bd d1 3d 01 02 57 bd c1 be a3 3d df 2a 4f 3e
       0.10241207 -0.052492145 0.07995368 0.20231198
0001f0 3e 37 0c be 9f 6e 3a 3e ff 5f c1 3d cd e6 be 3d
       -0.13692948 0.18206261 0.09442138 0.093213655
000200 a8 4c 09 3d 22 bd 88 be 84 31 6c 3c 6b 8f 73 bd
       0.03352037 -0.26706797 0.014416102 -0.059462946
000210 68 fa e9 bd 4d ed ca ba 75 05 95 3c 19 5d af 3d
       -0.11424714 -0.0015482098 0.018191079 0.08562679
000220 fe ce a9 bd b8 18 1e bb 7a 31 5c 3e f1 2b 8a bd
       -0.08291434 -0.002412362 0.21503249 -0.067466624
000230 88 59 22 3e 2f 64 00 be 91 a0 8a bd ba 95 b7 3c
       0.15854466 -0.12538217 -0.06768907 0.022410262
000240 9e 92 ed 3c 85 68 88 3e e6 0a 1c be 74 44 93 3e
       0.029000577 0.26642242 -0.15238532 0.28763163
000250 16 d0 9c be f3 37 1e 3d 98 cc 8e 3e e1 5a 95 3e
       -0.30627507 0.038627576 0.27890468 0.29170898
000260 99 bb 6c be 0c b6 21 3e 91 54 a9 bd 5e 49 6f be
       -0.23118438 0.15792102 -0.08268083 -0.23367831
000270 fd 4b 92 be 13 e6 c5 3e 07 85 a6 3e da 33 33 be
       -0.285736 0.38652095 0.32523367 -0.17500249
000280 4e ce 1b bf 8e 5a 89 3e f3 27 16 be 4b 3b bf bd
       -0.6086167 0.268269 -0.14663677 -0.09337481
000290 62 b1 47 be 0c d0 47 3e 45 59 56 3d 8e a1 67 3c
       -0.1950126 0.19512957 0.052331228 0.014137639
0002a0 21 2d ef 3d c7 df 20 be 17 78 0b bd c5 bf cf 3c
       0.116785295 -0.15710364 -0.034050073 0.025359998
0002b0 c9 f1 3c be 34 d5 3b bd cd a5 f0 bc 4e 6b d7 3d
       -0.18451609 -0.045857623 -0.029375935 0.105185136
0002c0 a8 65 49 3e c7 97 da bd 3d 1e 1c 3f 9d b1 f0 bd
       0.19667685 -0.106734805 0.6098364 -0.11752627
0002d0 56 1a b3 3d 6f b5 5b 3d 0b 62 7b be 33 8d 99 be
       0.087452576 0.053639825 -0.24549119 -0.2999054
0002e0 2d 86 96 be 16 e3 75 3e 11 fe 2d be cf df d2 be
       -0.29399243 0.24012408 -0.1699145 -0.41186377
0002f0 10 4e 02 be 91 d6 21 be ca 5d 74 bd 3c 21 96 3e
       -0.12725091 -0.15804507 -0.059659757 0.2932223
000300 69 11 f4 be f6 ec fc 3d d8 64 59 bd f2 78 af 3d
       -0.47669533 0.12349884 -0.053074688 0.0856799
000310 dd 8b 4d bd 4c 6f 39 be 03 87 2a 3e 34 49 fb bd
       -0.050182212 -0.18108863 0.16653065 -0.12269822
000320 3d d5 87 3b ef 27 b5 bc 78 28 ee 3d ee 7b f8 3e
       0.004145293 -0.022113768 0.116288126 0.4853205
000330 aa 9a da bd 12 98 88 3e 07 80 dc 3d d8 00 5b 3e
       -0.10674031 0.2667852 0.10766607 0.2138704
000340 ee cb 40 be a0 e7 1d 3e 1b 92 ab 3c 28 0b cd bd
       -0.18827793 0.15420389 0.020943692 -0.100118935
000350 61 c3 79 bd f0 e8 0a 3e 4b 7d d7 3d d3 e0 26 3e
       -0.060977343 0.13565421 0.105219446 0.16296701
000360 a0 47 a0 be 7d a9 df 3d 9c 09 31 be 00 9f e5 bc
       -0.31304646 0.10920999 -0.17288822 -0.028029919
000370 da 9a 00 3e 7f f7 83 3e 00 d8 82 bd 23 2f 10 be
       0.12559071 0.25774762 -0.06388855 -0.14080481
000380 b5 d5 66 3e 53 8c f5 bd 21 95 17 be e1 0f f7 bd
       0.2254246 -0.11989655 -0.14802982 -0.120635755
000390 28 78 12 3d 35 a8 f7 3e cf 56 ac be 5f 55 02 3d
       0.03575912 0.4837052 -0.3365998 0.031819697
0003a0 f0 6e 12 be 7c 35 a9 3b 67 c9 86 be 96 bc bb bb
       -0.14300132 0.0051638465 -0.26325533 -0.0057292683
0003b0 d7 1f f2 bc 48 1a d8 be 6c 10 5a ba a0 3c 39 be
       -0.029556198 -0.4220755 -0.0008318487 -0.18089533
0003c0 c1 0b 96 3e da 4b 0c 3e 5d a5 b9 3d b7 01 b7 3d
       0.29305843 0.1370081 0.09064744 0.08935874
0003d0 f7 c5 c7 3e 62 90 9b 3d ee 57 29 3c b8 d1 8b be
       0.39018223 0.07595898 0.0103359055 -0.2730844
0003e0 72 f7 bb bd 3d a7 9d be 41 1e 61 be 5a 49 30 be
       -0.09178056 -0.30791655 -0.21984197 -0.17215481
0003f0 cc 1c 88 3e 17 25 c9 3e 46 cd d0 bb ad 1e b1 bd
       0.2658447 0.3928611 -0.0063721268 -0.08648429

conv1.bias f4 [16]
000000 9f 44 13 3d 48 84 2d 3d 20 ea 68 3d 97 78 38 3d
       0.035954114 0.04236248 0.056863904 0.04503688
000010 53 ed d7 bb 0f b4 99 bc e6 c8 02 3c de 64 97 3c
       -0.0065895705 -0.018762616 0.007982468 0.018480714
000020 30 cd bb bc ea 32 3f 3c b6 8e 8b 3d c5 82 bd 3b
       -0.02292499 0.011669854 0.06814329 0.005783411
000030 5f ea 9d 3d 80 43 38 3c fe 1b 1d 3d 78 df 36 bc
       0.07710718 0.011246562 0.038356774 -0.011161678

conv2.weight f4 [32, 16, 3, 3]
000000 ea 7c c9 bd d9 78 2d 3e cc 32 ab bd 62 d8 b6 bd
       -0.098382786 0.16940631 -0.08359298 -0.089279905
000010 f6 be 88 ba f4 ea fa 3d 9a 63 85 3d 39 95 06 3e
       -0.0010432887 0.12251845 0.06513138 0.13142861
000020 3b fa 6b 3c a9 9b 9e 3d 03 91 f2 bc 4d 78 2c 3e
       0.014402921 0.077445336 -0.029610163 0.16842766
000030 40 a6 9e bd 5f 7a 96 bd 78 5e 4d 3e a5 5b 3d 3c
       -0.077465534 -0.07347559 0.20055568 0.011557494
000040 9e a5 9b bd 44 64 9c 3e 28 e8 23 be 78 b4 a9 bd
       -0.07599948 0.30545247 -0.1600653 -0.08286375
000050 70 33 07 bd 50 09 85 be 71 43 fa 3c b6 77 b2 3d
       -0.03300804 -0.25983667 0.030549737 0.08714239
000060 01 f7 36 3e f7 87 89 3c 98 87 97 3c f1 4d 1a bc
       0.17867662 0.016788466 0.018497273 -0.009417997
000070 3b f7 64 bc c8 ca 12 3d c0 49 64 3d d2 e0 5d bc
       -0.01397496 0.03583792 0.055734396 -0.013542371
000080 63 ed ab 3d f8 d3 76 bc d7 5a b6 3d ba 62 d2 bc
       0.08394887 -0.015065186 0.08904045 -0.025681842
000090 a8 40 a3 bd 54 f7 fb 3c d0 11 43 bc c3 ea ff 3d
       -0.079713166 0.030757584 -0.011906102 0.12495949
0000a0 10 c9 11 bd 4f ce 03 bd 6b 28 58 3e 0b 6f 28 bb
       -0.03559214 -0.032179173 0.21109168 -0.0025700952
0000b0 5e 7c e4 bb b1 49 28 bd ed 40 42 3e bc e3 83 bd
       -0.0069728335 -0.041085903 0.1897008 -0.06439921
0000c0 a8 79 95 bd 41 28 9d 3d 5d 1b b7 bd 0f 11 e5 bd
       -0.07298595 0.076736934 -0.08940766 -0.11184894
0000d0 66 cc fa 3d f5 d2 86 3e 80 56 04 be bb 8a 9d bc
       0.12246017 0.26332822 -0.12923622 -0.01923119
0000e0 ca 83 94 bd 00 da 0c 3c fd dd 3f 3d 8f ed 2e 3e
       -0.07251699 0.008596897 0.046842564 0.17082809
0000f0 61 5a 50 bd 34 0d 9e bd 02 3b ef bd 23 c3 79 3e
       -0.050867442 -0.07717362 -0.11681177 0.24390845
000100 2e 44 44 bd c0 2f 37 3d 1e 0e 12 bd de 1d e1 bc
       -0.047916584 0.044723272 -0.035657994 -0.027480062
000110 a2 a5 ee bd 57 33 de bd a3 a5 e4 bc 53 5a 27 3d
       -0.11652686 -0.10849636 -0.027911013 0.040857624
000120 59 c2 9b 3d ae 5b 0b 3c ce 79 56 3d b9 6b 8f bd
       0.07605428 0.008505745 0.052362256 -0.07002968
000130 66 61 72 3e 78 fa 2b be 0b b5 21 be ca 06 61 be
       0.23669967 -0.16794765 -0.15791719 -0.21975246
000140 cc 96 d0 3d 73 d3 81 3c 19 01 a3 bd be 1c fc bc
       0.10185012 0.015847897 -0.07959194 -0.030775424
000150 2a 6b 2e be 85 37 49 3d 80 e7 6d 3d 1d 6b 02 be
       -0.17033067 0.049125213 0.058082104 -0.12736173
000160 70 7b ec bd e9 d8 b8 3d 1a a4 1e 3e b3 9f 29 be
       -0.11546981 0.09025747 0.15492287 -0.16564827
000170 16 bf ee 3d e6 06 87 3b 21 fa 8a 3c 32 f3 19 be
       0.116575405 0.0041206954 0.016964974 -0.15034178
000180 59 62 9f be 6d 32 88 be 4b 6a 20 bd d0 4c 7a be
       -0.3112972 -0.26600972 -0.03916387 -0.24443364
000190 fa 29 00 be fb c4 0d be 5c 2e ea 3c b6 62 d2 3d
       -0.12516013 -0.13844673 0.028586559 0.10272734
0001a0 b0 b8 98 3d 55 66 a8 bd 34 24 bd bc 8d cb 0b 3d
       0.07457101 -0.08222643 -0.023088552 0.034129668
0001b0 5a cc 1a 3b dc 22 6e bd 76 27 57 3d a4 24 f0 bd
       0.0023620338 -0.058138713 0.052527867 -0.11725739
0001c0 bc 1a 70 3d f9 05 19 3e 15 45 4a 3c a8 9d 4c 3e
       0.058619246 0.14943685 0.012345572 0.19982016
0001d0 51 29 63 bd 78 87 7b bd 6c 5d af bd 32 36 e3 3d
       -0.055459324 -0.06140849 -0.08562741 0.11094321
0001e0 6b 56 bf bd bd e4 29 bd ca 45 a9 3d a5 c9 55 bd
       -0.09342655 -0.041477907 0.08265264 -0.052194256
0001f0 ac 87 93 3e 57 54 a4 3d 25 f5 5d be 13 9f 6a 3e
       0.28814447 0.08023899 -0.21675546 0.22912244
000200 f5 75 39 bd 90 74 98 be 80 cb a9 3d fa ea 9f bd
       -0.04527851 -0.2977643 0.08290768 -0.0780849
000210 21 9d e2 bc 98 30 89 bd f7 7a 84 3d 3b fb 95 bd
       -0.027662816 -0.06698722 0.06468766 -0.07323309
000220 25 cb b7 bd 1d 5a 4d be 93 31 1e be b8 60 9e 3c
       -0.089742936 -0.20053907 -0.15448599 0.019333228
000230 27 91 65 bd 29 a1 05 3e c2 b8 b2 bd b1 9f 76 3d
       -0.05604663 0.13049759 -0.08726646 0.060210887
000240 f3 da fc 3d 09 4c 5c bd 65 9e 09 bd 3f 87 e0 bd
       0.12346449 -0.05378345 -0.033598322 -0.10963296
000250 0e 32 e6 3d 43 a6 59 3e 7e ae 0a 3d ee 3c 02 be
       0.11240016 0.2125483 0.033857815 -0.12718555
000260 79 43 76 be 5a 6b c5 3d c4 2d 0d 3d cb 57 9d bd
       -0.24049176 0.09639616 0.034467474 -0.07682761
000270 e0 60 32 be 1d ad 2f be 4a e0 8f ba 30 8f 4d bd
       -0.17419767 -0.17155881 -0.0010976878 -0.050185382
000280 2e 1b 12 be e2 0b 46 3c a4 7b ab bd c3 33 a2 3d
       -0.1426818 0.012087794 -0.08373192 0.07920029
000290 13 92 10 3d 79 df ba 3c 60 ba 06 3e 7b 89 d1 bd
       0.035295557 0.022811638 0.13157034 -0.102313004
0002a0 14 6c 00 3e bd 10 b7 3d 3e 18 8c 3d b1 93 5f be
       0.12541229 0.089387394 0.06840561 -0.21833684
0002b0 c7 bb 76 3d be 67 ca 3e 6a 4e be 3d 0c 81 ca bd
       0.060237672 0.39532274 0.092923 -0.09887895
0002c0 08 5a 25 be bc 29 11 3e 41 ee 72 3e c0 07 0b 3e
       -0.16147625 0.14176077 0.23723699 0.13577175
0002d0 00 93 b5 bd c1 9b 9a 3d 30 1f 08 be 3c 89 5f b9
       -0.08865929 0.07549239 -0.13293147 -0.00021318061
0002e0 e3 80 b2 bd 76 16 80 3c 10 af 2f 3e c5 a6 b5 bd
       -0.087159894 0.01563571 0.17156625 -0.088696994
0002f0 a0 50 dc 3d c1 d8 3b 3d fc 81 30 3d 04 1b 39 be
       0.107575655 0.04586101 0.043092713 -0.18076712
000300 90 f3 f3 3c ed 7d 00 be 8b 91 8e bc 12 8e c1 3c
       0.029779226 -0.12548037 -0.017403385 0.023627315
000310 7f b7 a8 3d 00 43 6b bd 41 62 bd 3c ae 44 17 be
       0.08238124 -0.057436943 0.02311814 -0.14772293
000320 54 7d b1 3c 3f 7c 9c bd 8e b8 76 3c 38 82 08 be
       0.021666206 -0.076408856 0.01505865 -0.13330925
000330 38 b8 a8 be 14 f5 e3 3d 15 c7 69 3b ce dd b6 bd
       -0.32953048 0.11130729 0.003567164 -0.08929025
000340 db 6c 1d 3e 97 9a 7e 3c 49 bd df 3d 94 53 2b be
       0.15373556 0.015539787 0.10924775 -0.16731101
000350 cb dc 68 3d db 6d cf ba d3 74 76 be 45 fb f7 bd
       0.05685119 -0.0015825586 -0.24068002 -0.12108473
000360 61 0e 34 3e 4a 54 49 bd 3b 4e 3c 3e 08 cf 93 bd
       0.1758361 -0.04915265 0.18389218 -0.072172225
000370 a8 5d 84 3c 37 63 a0 3d 8d ed 30 be 8c 41 00 3e
       0.01615794 0.07831424 -0.17278118 0.12525004
000380 fd cc f7 bd 9e 52 34 be c6 64 88 3d c3 b9 0d 3e
       -0.12099645 -0.17609641 0.06659846 0.13840394
000390 d0 5b 19 3e 7f e4 f5 3a f2 c5 ac bd d9 1a 7a bd
       0.1497643 0.0018760114 -0.084361926 -0.06106076
0003a0 e7 70 04 3e 84 cc a9 3d a2 45 fd 3d 78 19 ca 3d
       0.12933694 0.082909614 0.12366797 0.09868139
0003b0 d0 8f 18 bd d8 f5 60 3c 70 4a 45 be 9a 9d 62 3d
       -0.037246525 0.013730489 -0.19266677 0.05532608
0003c0 6b 1f 33 bd 74 cf 16 bd 9d 5a e0 bc 89 5e ae 3d
       -0.043731134 -0.036818936 -0.027386958 0.08514125
0003d0 7a fd 54 3d 76 c7 0f 3e 4b f5 0b be 2c c2 00 3e
       0.051999547 0.14040932 -0.1366779 0.1257407
0003e0 ce 3f 2b bc 48 46 a4 3d 98 61 5b 3e e5 21 d3 3d
       -0.010452224 0.080212176 0.21423948 0.10309199
0003f0 f9 da 8a 3d 24 76 d3 bd 89 f9 ec bd f7 9c 2c bd
       0.06780047 -0.10325268 -0.115710326 -0.04214188

conv2.bias f4 [32]
000000 de 5b 1f 3b bf 1a 04 3c 8f 70 60 3d 65 19 a0 bc
       0.0024316232 0.008063017 0.054794844 -0.019543359
000010 cc 8c 10 3b 92 9b 1c bb d0 b8 71 bc 52 3b 11 bc
       0.0022056578 -0.0023896438 -0.014753535 -0.008864241
000020 fa 1f 9f bc ba 93 5c bc 7d 45 26 bd 4d 35 b8 3c
       -0.019424427 -0.013462955 -0.040593613 0.022486353
000030 db c6 f7 bc 93 71 4a bc 6d 27 3c 3b 45 5b 0a 3c
       -0.030246189 -0.01235618 0.0028710023 0.008444612
000040 86 af 72 3b 3b f1 d3 3c f3 ed 0c 3d 75 64 eb bc
       0.003703089 0.025871864 0.034406614 -0.028734425
000050 30 c2 a0 3c f1 6c a2 bc 91 c1 13 3c c5 78 bb bc
       0.019623846 -0.019827338 0.009018318 -0.022884736
000060 e6 bc 3f bb 76 c6 e8 38 a6 7a 11 bc 4a 9d 73 ba
       -0.002925688 0.00011099588 -0.008879339 -0.0009293152
000070 4c 7f 08 3c 6c 7b 9e 3c 93 d5 96 3c ab 1c 45 3c
       0.008331131 0.019345962 0.018412387 0.012030761

conv3.weight f4 [64, 32, 3, 3]
000000 bf 38 0c be c5 5d f5 bc 66 7d a3 bd 3a fd 01 be
       -0.13693522 -0.02995194 -0.07982902 -0.12694255
000010 d7 7c b3 bd 54 43 96 bd 4f 2b a2 bd 03 c1 75 3c
       -0.08764046 -0.073370606 -0.07918417 0.014999631
000020 3e 5a 28 bd 20 cb 80 bd 5a 82 ab bd 69 1b 10 be
       -0.041101687 -0.06288743 -0.08374472 -0.14072956
000030 dd 6e ea bd 9a 05 b0 3c 63 04 9e 3d 11 9e 3d 3c
       -0.11446927 0.021487046 0.077156805 0.0115733305
000040 2d 89 8a bd d8 f6 1f 3c 23 81 e7 3c fa 65 9c 3c
       -0.067644455 0.009763442 0.02825982 0.019091595
000050 57 ae f6 bc 4e 27 e6 3c 98 7e 4d 3c dc d1 37 bc
       -0.030112429 0.028094914 0.012542389 -0.011219468
000060 86 e1 25 3d 4b 9e 0c 3e ae 34 e1 bc 4d b1 ac 3c
       0.04049828 0.13732259 -0.02749094 0.021080637
000070 bb 86 a4 3d eb 3c 24 bd 58 a7 e8 3c f8 62 57 bd
       0.0803351 -0.04009716 0.028400108 -0.05258462
000080 1c e2 8a 3d fc ff 54 3e 98 72 7a bd be 1a fc bc
       0.06781408 0.20800775 -0.06114444 -0.03077447
000090 00 a2 0e 38 d1 f4 00 be e4 57 d4 bc f3 3c a7 3d
       3.4006312e-05 -0.1259339 -0.025920816 0.08165922
0000a0 28 26 e8 bd 1d 46 a7 bd c4 82 64 3d eb 01 d5 bd
       -0.11335403 -0.0816767 0.05578877 -0.104007564
0000b0 2e 0e db 3b a7 1c e6 3c c7 2c 94 bc 72 47 3f 3e
       0.00668504 0.028089834 -0.018087758 0.18679598
0000c0 04 97 84 bc 1d a4 d9 3d 9f 62 d0 3d 52 5a 2f be
       -0.016185291 0.10627005 0.101750605 -0.17124298
0000d0 1a b8 52 bd 67 de a7 bd 0d 5f 58 3e 7c 2b 1a be
       -0.051445104 -0.08196717 0.21130009 -0.1505565
0000e0 9d c9 20 3d cd 42 74 3c 47 3b 98 3c 84 f0 ad bd
       0.039254773 0.014908505 0.018582953 -0.0849314
0000f0 60 cb c9 bd f7 99 8b 3d ac e3 5d be b5 86 d9 bd
       -0.09853244 0.06816476 -0.21668881 -0.106213965
000100 dc bd 4a bd d7 ec e3 3d ed 79 cf 3d c5 be e5 3c
       -0.04949747 0.11129158 0.10130677 0.028045068
000110 8d 9b 41 3d c4 31 88 bc e5 ac ca 3d 29 ef 8e bd
       0.047267485 -0.016625293 0.09896258 -0.0697921
000120 70 23 eb 3c 3e 54 f0 ba 7b 65 b3 bd 13 49 8d 3d
       0.028703421 -0.0018335653 -0.0875959 0.068987034
000130 5c bd 5f bc f6 0f 5b bd 0d f4 2e be df 81 b1 3d
       -0.013655987 -0.05348202 -0.17085285 0.08667349
000140 24 9c 2c 3c 10 2c a5 3d ce 4d 07 3e de 44 3f bd
       0.010535274 0.08065045 0.13213274 -0.046696536
000150 49 0f e5 3d 0a 0d 4c bd 6e 44 fe bd 6e b6 05 3e
       0.11184556 -0.049817123 -0.12415396 0.13057873
000160 44 b7 2a 3e 2d 81 2e 3d 0f 05 ff 3d 0e 4b 27 3d
       0.16671473 0.04260366 0.12452137 0.040843062
000170 85 37 d2 3d 0b 50 5a 3d 97 2b ce bb 2a 0f 12 bc
       0.10264496 0.05329899 -0.0062918174 -0.008914748
000180 ba c4 ee 3d 01 81 9f 3d 7d 94 a7 bd 99 b1 93 bb
       0.11658616 0.077882774 -0.08182619 -0.0045072553
000190 26 55 f1 bc 37 d1 76 3c 80 b6 4e 3d c2 ba 26 3e
       -0.029459547 0.015064529 0.050467014 0.1628218
0001a0 a6 d9 c8 bd 04 61 0e bc 14 e6 2c 3e 88 e0 26 3d
       -0.09807138 -0.0086901225 0.16884643 0.040741473
0001b0 cb ef aa bd 13 e0 0a bc 1d 86 07 be 41 11 68 3e
       -0.08346518 -0.008476275 -0.13234754 0.22662832
0001c0 db 92 d7 bd 99 4c 03 be 7a b4 9b 3d f7 b5 ae ba
       -0.10526057 -0.12822188 0.076027825 -0.0013329376
0001d0 a7 35 e9 bc 58 00 5e bd c1 dc 45 3b bf 04 da bd
       -0.028467966 -0.054199547 0.0030191394 -0.106454365
0001e0 29 b7 a7 3d 67 0a 2b 3d 29 aa 2c bd 2a 3a da bd
       0.08189232 0.041757967 -0.042154465 -0.10655625
0001f0 11 3f 55 bd 19 33 0d bd 79 1f 83 3b f5 fb 34 3d
       -0.052062098 -0.03447256 0.0040015546 0.044185597
000200 4f da 22 be df 6b b2 bd 90 44 2c bd b4 2d 92 3d
       -0.1590359 -0.08711981 -0.042057574 0.071376234
000210 da fb ef bc db e3 ae bc 3e 17 8d 3c 4a 51 89 bd
       -0.029294897 -0.021348884 0.017222997 -0.06704958
000220 88 21 ad bd 8d a0 42 3b 91 0c 75 3d 32 90 d2 bd
       -0.08453661 0.0029697747 0.059826437 -0.10281409
000230 d4 94 9e bd d8 46 a7 3d 0a f6 1b 3c ea f0 a3 bc
       -0.077432305 0.08167809 0.0095191095 -0.020012338
000240 af 3a 0a 3d c2 6f ec 3c ac 19 1b 3e 10 08 c5 bc
       0.03374737 0.028861884 0.15146512 -0.024051696
000250 bf 16 6e bd 22 bd e4 3b aa 6c 2a 3e 82 a9 6e bd
       -0.05812716 0.006980554 0.16643015 -0.058267124
000260 77 e0 00 be e9 2c 3c 3e 41 28 3e 3d f2 88 18 be
       -0.12585627 0.18376507 0.046425108 -0.1489599
000270 af 89 ae 3d ea ad af 3c c0 c6 97 bc 0c df f6 bd
       0.08522355 0.021445233 -0.018527389 -0.120542616
000280 6e ac e2 bd 8c 15 9b 3d 93 6f a1 ba 3f db be 3d
       -0.110680446 0.07572469 -0.0012316577 0.093191616
000290 0c 91 f7 3b ae 6b 0b bc 1a dd c7 bd 96 e1 0d 3c
       0.0075551327 -0.00850956 -0.09758969 0.008659741
0002a0 ae 11 50 be fb b7 27 3e 7b ca 29 3d 9c c2 3e 3e
       -0.20319244 0.16378777 0.041452866 0.18628925
0002b0 7e 71 35 be 0c ec 5a 3d 8e 63 52 bd fa d0 06 3e
       -0.17719075 0.053447768 -0.051364474 0.13165656
0002c0 50 43 3a 3d c8 64 c4 bd 68 70 1d bc b3 4c a4 bc
       0.04547435 -0.09589535 -0.009609319 -0.020056104
0002d0 0f 57 08 3e b1 2b 50 3a 43 b1 01 3d 9d 47 ee 3c
       0.1331446 0.0007941081 0.03166319 0.029086882
0002e0 35 5f 05 bd 7f d4 18 be 8e 88 86 bd fd a0 c1 3d
       -0.0325615 -0.14924811 -0.065690145 0.09454534
0002f0 7c 86 e0 3c 78 5d 9e bd 6a 16 96 bd 95 bd 8b bd
       0.027407877 -0.077326715 -0.07328494 -0.06823269
000300 35 b9 6b 3d 46 0b c7 3d 48 03 f5 bd b9 db aa bd
       0.057549674 0.09718947 -0.119635165 -0.0834269
000310 b0 f0 c1 bd 97 b6 33 3e 31 6a a7 3d 8f 44 f0 3d
       -0.094697356 0.17550121 0.08174551 0.117318265
000320 7f 12 c2 3d 40 fe df bc 1f 13 42 3c 1c dd 8d bc
       0.09476184 -0.027342916 0.011845379 -0.017317347
000330 43 02 35 3d fc 52 7a be 17 51 91 3b 06 84 b5 bc
       0.04419161 -0.24445719 0.0044347155 -0.02215768
000340 80 3e 1a bd bc 24 73 3d ca 3a 38 bd 25 51 98 3d
       -0.03765726 0.059361205 -0.04497794 0.07437352
000350 02 bd d6 3d 9e 92 62 bc 4d c4 73 3c 18 e4 a3 3c
       0.10485269 -0.013828902 0.014878345 0.020006225
000360 c6 c0 50 3b bf 22 c5 bd 04 f9 68 bd 1b d9 ed bd
       0.0031853183 -0.09625768 -0.056878105 -0.11613675
000370 f3 e3 97 3d 6c 67 85 bc 66 26 a9 bc 25 5b b1 bd
       0.07416525 -0.016284667 -0.020648193 -0.086599626
000380 c0 fb 31 3d 96 eb a0 bc 60 1a 4d bd ae 4a ee bc
       0.043452978 -0.019643586 -0.05007398 -0.029088344
000390 c9 04 36 3d 45 50 82 bd de b0 ac 3d eb cb 1f bd
       0.044438157 -0.063629664 0.08432172 -0.03901283
0003a0 1d 1e bf bd 6e 24 52 be 86 47 30 bd dd fc 55 bd
       -0.093319155 -0.2052171 -0.04303696 -0.052243102
0003b0 4f 2a 32 bd 38 55 d0 3c c9 34 f4 bd a3 dd 42 3e
       -0.04349738 0.02543126 -0.119241305 0.1902986
0003c0 63 55 b6 bc 52 0a 06 be 0e 4d 5e bc 30 b3 83 bd
       -0.022257512 -0.13089874 -0.013568176 -0.06430662
0003d0 f4 5e 77 3d ac 5b 54 3d bf 3d 45 bc 59 1b 92 bd
       0.06039329 0.051845238 -0.012038647 -0.071341224
0003e0 64 c9 8e 3c 7e 0a b4 3c cb 94 e1 bd 08 b7 e4 bc
       0.017430015 0.02197766 -0.11014708 -0.027919307
0003f0 14 d0 bf 3d 12 6b cb 3d fd f9 0a be 8c 7b df bc
       0.0936586 0.099325314 -0.13571925 -0.027280591

conv3.bias f4 [64]
000000 6f 1b 7b 3a 4a ad e3 ba 54 bd 9c 3a 36 d2 a6 3a
       0.0009578978 -0.001737037 0.001195828 0.0012727443
000010 53 6b 39 3b 54 5b 4e ba 8a 53 97 39 dd 15 fe ba
       0.002829273 -0.00078718853 0.00028863206 -0.0019385178
000020 31 e6 89 3b 40 50 de ba ec 9c a8 ba 9f 05 99 38
       0.004208349 -0.0016961172 -0.0012864149 7.2966555e-05
000030 69 f3 2f bb d9 c2 a8 ba 6b 5f 3c bb 3b 8b f3 ba
       -0.0026847965 -0.0012875452 -0.0028743397 -0.0018580923
000040 8d 68 d7 3a a9 08 00 3a bf 93 8c ba 89 e2 3d bb
       0.0016434357 0.0004884103 -0.0010725184 -0.0028974137
000050 eb 1b 32 bb f8 e0 ca 39 63 a8 31 3b 31 8e c6 b9
       -0.0027177285 0.00038696057 0.0027108423 -0.00037871444
000060 1f bf 69 ba 1e 87 0c ba 75 3c 1d bb 31 5a 94 3a
       -0.0008916724 -0.000536071 -0.0023992334 0.0011318383
000070 f7 a0 8e b9 c2 fa 10 ba 2b bf 13 ba ce 32 ca ba
       -0.0002720428 -0.000553053 -0.0005636091 -0.0015426518
000080 c0 3c 17 b7 80 62 c9 39 a5 7f 9a ba 63 74 3e 3a
       -9.014446e-06 0.00038411096 -0.0011787309 0.0007265268
000090 ed b4 b0 ba 54 49 2b ba 51 06 3f bb b4 89 11 3a
       -0.0013481654 -0.0006534059 -0.0029148052 0.00055518304
0000a0 33 16 0b 3a 2b 32 15 3b 29 d4 9d ba be 40 73 3a
       0.0005305737 0.0022765498 -0.0012041378 0.00092793617
0000b0 5b 4e b8 3a e2 78 65 ba d7 90 e2 3b 67 a3 50 bb
       0.0014061438 -0.00087536697 0.006914239 -0.0031835677
0000c0 c0 e6 b0 ba b7 55 12 3b 06 21 6b 3a 84 58 29 ba
       -0.0013496503 0.0022328922 0.00089694594 -0.0006460028
0000d0 9b 5a b3 ba 17 ff 48 39 3a 44 d2 3b 37 2f d8 3a
       -0.0013683619 0.00019168515 0.0064168246 0.0016493563
0000e0 75 f8 b5 ba 8c d1 36 bb d6 36 d5 ba fa e6 4c b9
       -0.001388325 -0.0027895896 -0.0016266953 -0.00019541002
0000f0 0d c0 1d bc b4 94 82 3b 81 23 90 bb b2 4e 94 38
       -0.009628308 0.003985012 -0.0043987636 7.071848e-05

bn1.weight f4 [16]
000000 65 34 80 3f ed 6e 7d 3f 97 4d 7a 3f 97 73 80 3f
       1.001599 0.98997384 0.9777464 1.0035275
000010 57 05 80 3f f5 92 7c 3f df 42 7e 3f dc a7 82 3f
       1.000163 0.9866174 0.9932079 1.0207477
000020 b0 7e 84 3f b8 3b 82 3f 2c 05 82 3f 05 a6 81 3f
       1.0351162 1.0174475 1.0157828 1.012879
000030 d1 14 7f 3f 9d 07 80 3f d4 92 78 3f 09 76 80 3f
       0.9964114 1.0002323 0.9709904 1.0036021

bn1.bias f4 [16]
000000 f3 1f 84 3d 71 4d 9b bc 15 e0 df 3d 16 60 38 3d
       0.06451406 -0.018957825 0.10931412 0.04501351
000010 17 d4 9d bd 35 01 3c 3d d3 b9 ca bb ca f7 b0 3c
       -0.077064686 0.04589959 -0.0061867028 0.02160253
000020 ad b8 d4 bc f4 b5 a0 3d 5e 38 a1 3d 3f 7c 17 3d
       -0.025966967 0.07847205 0.07872079 0.036983725
000030 36 de b4 3d 58 26 03 3b dc 98 d3 3d e6 49 b1 3c
       0.08831446 0.0020011868 0.1033189 0.021641683

bn1.running_mean f4 [16]
000000 b4 11 20 3d 1e 98 38 3d a6 3c 97 3d 66 6d 32 3d
       0.039079383 0.045066945 0.07384615 0.04356136
000010 9d ab 27 bc 1e 94 52 bc 00 99 76 3c b6 ad c2 3c
       -0.010233787 -0.012852697 0.0150511265 0.023764472
000020 e2 d4 b7 bc 9d 59 13 3c b9 97 8f 3d 96 5b 82 3b
       -0.022440378 0.008993533 0.07011361 0.003978203
000030 8b fb 9a 3d 54 05 e7 3b 45 2c f9 3c cc 54 63 bc
       0.07567509 0.0070501957 0.030416617 -0.013875198

bn1.running_var f4 [16]
000000 a7 53 33 3f 9f 32 e0 3f bf a6 71 41 c7 2b 67 3f
       0.7004952 1.7515448 15.1032095 0.90301174
000010 e8 5e af 3f e8 8e c7 3f 19 72 f2 40 55 13 13 40
       1.3700838 1.5590487 7.576428 2.298055
000020 6e 83 6b 3f 31 7e cd 3f 92 48 9f 3e d0 3d 5f 40
       0.9199742 1.6054136 0.31110054 3.4881477
000030 80 af bc 3e 64 ca 12 3f fd 09 92 40 30 e0 b5 3f
       0.36852646 0.57340074 4.5637193 1.4209042

bn2.weight f4 [32]
000000 28 1e 83 3f 7c f4 7d 3f b7 fa 84 3f 1d 91 73 3f
       1.0243578 0.9920118 1.0389012 0.951433
000010 aa f3 84 3f 0f b1 80 3f 6b 5c 83 3f 52 62 80 3f
       1.038686 1.0054034 1.0262579 1.0030005
000020 30 77 7b 3f 30 5e 83 3f 2a fc 7d 3f 4f b5 7e 3f
       0.9822874 1.0263119 0.99212897 0.99495405
000030 29 a2 99 3f 45 6d 7a 3f ce 73 81 3f 38 62 8a 3f
       1.2002612 0.9782298 1.0113466 1.0811224
000040 9d 98 7e 3f 5c ad 7d 3f c9 f4 82 3f 40 bb 84 3f
       0.9945162 0.9909265 1.0230953 1.0369644
000050 bd f3 7e 3f 1d 19 7a 3f c4 d4 85 3f a0 c0 80 3f
       0.99590665 0.9769457 1.0455556 1.0058784
000060 6c 2a 7f 3f e2 75 7a 3f c1 fe 7f 3f d9 3b 81 3f
       0.99674106 0.97836125 0.999981 1.0096389
000070 71 cb 7a 3f 96 2d 78 3f ad ea 7c 3f 1a d6 7c 3f
       0.97966677 0.9694456 0.98795587 0.98764193

bn2.bias f4 [32]
000000 7d a7 17 bc d4 34 bd bc c4 07 7b 3d 2d bb 63 bd
       -0.009256241 -0.02309648 0.061286703 -0.055598427
000010 98 2b c7 bc 6a fd 9f 3c 43 85 20 3d 55 99 39 3d
       -0.02431278 0.019530017 0.03918959 0.045312244
000020 04 0f f3 3c 23 80 70 3d ad eb e3 bc 4e 7b 87 3d
       0.029670246 0.05871595 -0.02782234 0.066153154
000030 0e 87 e3 3a a4 ba 86 3c 20 1e cd 3c a7 bc c8 bc
       0.0017358975 0.016446419 0.025038779 -0.024504019
000040 fa c8 2c 3d 63 ea 71 bd 85 a1 0b 3c 66 57 b3 3d
       0.042183854 -0.05906142 0.008522396 0.08756904
000050 34 65 66 bc ae 46 9f 3a 09 00 8c 3d 13 b6 7b bc
       -0.014062215 0.0012151801 0.06835944 -0.015363234
000060 f3 13 6b 3c ec e1 93 3b 0c 46 6b 3c 3f de 65 3c
       0.014348018 0.004513016 0.014359962 0.014030038
000070 93 b8 a2 3b 0e d7 86 3c 5f b1 55 bc 42 f0 8a bd
       0.0049658506 0.016459968 -0.013042777 -0.06784107

bn2.running_mean f4 [32]
000000 01 8b 9a be 9a 1a 6e 3d e5 af 8c be a3 19 cd 3e
       -0.30184177 0.058130838 -0.27477947 0.40058622
000010 20 88 3c bf 81 13 ef bd 79 7a 97 3c a9 aa 11 be
       -0.7364521 -0.11673642 0.018491017 -0.14225258
000020 4a 09 a2 be 6c 01 4d be 20 3d 24 bf d3 7c 63 be
       -0.31647712 -0.20020074 -0.6415577 -0.22215585
000030 b4 db 94 bf bc ac 15 3e 97 cc a6 be 18 96 5b be
       -1.1629548 0.14616674 -0.32577965 -0.21443975
000040 03 32 29 be e8 6a 10 3e 0f 53 a0 bd fa 69 6d be
       -0.16522984 0.14103281 -0.07828342 -0.23184958
000050 19 68 6a be ab 28 14 3f c3 92 d4 3d 02 96 98 3e
       -0.22891273 0.57874554 0.10379555 0.29801947
000060 a5 ec 4c be ea 4e 76 3e c1 76 d6 3d 8d 57 6a be
       -0.20012148 0.24053541 0.10471869 -0.2288496
000070 3f 10 e6 3d 42 ef c5 3e 53 7e 05 3e bf 53 84 be
       0.112335674 0.38659102 0.1303647 -0.25845143

bn2.running_var f4 [32]
000000 60 e1 0c 40 57 b6 1b 3f a8 de 15 40 7b 41 82 40
       2.2012558 0.60825104 2.3417149 4.070493
000010 04 20 c0 40 24 67 88 3f 78 f0 6b 3f c2 13 3f 3f
       6.003908 1.0656476 0.921638 0.74639523
000020 21 b3 cf 3f 69 57 33 3f 94 49 b4 40 e2 a8 d7 3f
       1.6226541 0.7005525 5.6339817 1.6848414
000030 ea c7 30 41 56 cb ee 3e 44 c8 67 3f 09 80 5e 3f
       11.048807 0.46639508 0.90539956 0.86914116
000040 1a b2 d9 3f 1e ad 0e 3f fb 33 10 3f 6d 25 7c 3f
       1.7007477 0.55732906 0.56329316 0.9849461
000050 73 3c a4 3f a9 c7 34 40 31 c7 49 3f 8e 0a b0 3f
       1.2830948 2.8246863 0.78819567 1.3753221
000060 52 4b 86 3f 4a d8 81 3f 64 e7 b5 3f 38 71 7d 3f
       1.0491736 1.0144131 1.421124 0.99000883
000070 53 f6 cc 3f d0 a9 cb 3f 2f 8c c6 3f c0 2f 95 3f
       1.6012672 1.5911198 1.5511531 1.1655197

bn3.weight f4 [64]
000000 67 d4 85 3f 28 a2 89 3f 1f 8a 80 3f 22 cc 82 3f
       1.0455445 1.0752611 1.0042151 1.0218546
000010 53 ea 84 3f 9f fb 81 3f 0e 41 83 3f be e3 7c 3f
       1.038401 1.0154914 1.0254228 0.98785007
000020 ad 99 82 3f 37 a2 83 3f 2b be 80 3f 36 bc 7f 3f
       1.0203148 1.0283879 1.0058035 0.9989656
000030 ee 68 90 3f f1 6f 7d 3f 96 3d 80 3f 9b a3 82 3f
       1.1282022 0.98998934 1.0018795 1.0206178
000040 39 2c 82 3f 53 b8 85 3f 5d 92 80 3f 9c 99 8c 3f
       1.0169746 1.0446876 1.0044667 1.0984378
000050 e8 33 80 3f d9 70 7c 3f c8 0f 82 3f f5 6f 80 3f
       1.001584 0.9860969 1.0161066 1.0034167
000060 87 70 86 3f 72 17 83 3f 4c 29 82 3f 9b 63 80 3f
       1.0503091 1.024153 1.0168853 1.0030397
000070 71 00 7f 3f 04 7f 81 3f 61 c7 80 3f 6d ac 7e 3f
       0.9961005 1.0116887 1.0060846 0.9948185
000080 c8 25 90 3f 05 09 83 3f 5f bd 80 3f ab 46 87 3f
       1.126153 1.0237128 1.0057791 1.0568441
000090 8b 89 84 3f 47 e3 80 3f 6a 65 83 3f 80 95 84 3f
       1.0354475 1.006936 1.0265324 1.0358124
0000a0 30 0d 83 3f 77 91 8f 3f 16 19 7e 3f 76 b2 81 3f
       1.02384 1.1216267 0.9925703 1.0132587
0000b0 6b 69 82 3f c0 3c 88 3f 9f b2 83 3f 58 a4 89 3f
       1.0188421 1.064354 1.0288886 1.0753279
0000c0 62 28 85 3f 0f 55 81 3f 7a ec 7e 3f 49 08 80 3f
       1.0402949 1.0104083 0.99579585 1.0002528
0000d0 3a f4 82 3f dc 8a 80 3f 6e ff 8b 3f 45 e9 82 3f
       1.0230782 1.0042377 1.0937326 1.0227438
0000e0 fb 57 83 3f 5c 43 8c 3f 4f 0d 80 3f 1c 7d 82 3f
       1.0261225 1.0958056 1.0004061 1.019443
0000f0 ae 10 85 3f 29 89 83 3f 7f 33 85 3f 3b 74 84 3f
       1.0395715 1.0276233 1.040634 1.0347971

bn3.bias f4 [64]
000000 ba d1 bf 3c 87 eb 0f 3c 2d f6 8c bb b2 84 38 3c
       0.023415435 0.008784181 -0.0043018074 0.011262106
000010 2b 50 02 3c b0 8d 3a bc 59 b5 9c 3b cf ee 0b bc
       0.007953684 -0.01138632 0.0047823605 -0.008540823
000020 3b 63 58 bc cf 5e 1c 3d f4 34 92 bc 34 9e 4b bc
       -0.013207252 0.038176354 -0.017847516 -0.012427855
000030 71 31 8a 3d 65 e3 41 bc 0d 27 a8 bc f0 0d ab bc
       0.067477114 -0.011834 -0.020526433 -0.02088067
000040 39 bb a5 3c ff f6 c7 3c fd 77 03 3c 88 cd af 3c
       0.020230876 0.02440977 0.008024213 0.02146031
000050 63 57 8a bc d2 40 b0 bc 93 d7 52 3c 89 f7 4e bd
       -0.016887372 -0.021515284 0.01286878 -0.050529037
000060 f8 2b 14 3d 56 1d f1 3c 6e 29 94 3c 5d e6 98 3a
       0.036174744 0.029432934 0.018086161 0.0011665333
000070 19 e0 9a bc 8e 6c 16 3c 56 bf 9d 3b 05 5e d4 bb
       -0.018905686 0.009181155 0.004814069 -0.0064809346
000080 76 fa b8 3c 89 7c 6d 3c 02 75 40 3b 2f 5d 0d 3d
       0.022580367 0.0144950235 0.0029366617 0.034512695
000090 c7 af 47 bc 09 f5 9e bc 39 16 aa 3c 15 06 16 3d
       -0.012187905 -0.019403951 0.02076255 0.036626894
0000a0 83 f6 be 3c 6c 16 4b 3d 14 b3 84 bc 0e aa 6c b8
       0.023310905 0.04958193 -0.016198672 -5.642516e-05
0000b0 40 84 95 3a a6 6f 48 bc 2e b7 85 3c 2b 9e 11 3d
       0.0011407211 -0.01223365 0.016322698 0.03555123
0000c0 02 21 03 3d ea 72 9b bc 06 de 3f bb b6 c7 24 bc
       0.0320139 -0.018975694 -0.0029276623 -0.01005738
0000d0 8d 69 a9 3c 3b 55 17 3c a9 64 86 bc fd 66 ea 3b
       0.020680213 0.009236629 -0.01640542 0.0071533904
0000e0 4e 65 86 3c ea 27 80 bc e6 a9 08 3c e6 9e a1 3c
       0.016405728 -0.015644033 0.008341288 0.019729089
0000f0 1d 6c ad 3c 05 e6 a8 3c 54 ec c0 3c 5a a6 e0 3c
       0.021169716 0.020617494 0.02355019 0.027423073

bn3.running_mean f4 [64]
000000 aa f7 54 be 37 4a 42 3e ac 2a 86 3e 5c 9e bf 3e
       -0.20797601 0.18973623 0.2620443 0.37425506
000010 5d 1e dd 3d 20 42 a5 be ab 33 bd 3e 8a 99 27 3e
       0.10796807 -0.32277012 0.36953482 0.16367164
000020 ac f9 f5 3e 9f a4 5a be 53 32 ce 3f 42 c9 99 3f
       0.48042047 -0.2135186 1.6109108 1.2014544
000030 03 bf 54 be e2 03 9d bf 46 6e 36 3f 5e 2e 15 3f
       -0.2077599 -1.226681 0.71262014 0.58273876
000040 33 a0 c6 3d 19 b2 3c bf 42 f9 6e 3e b6 70 49 bf
       0.09698524 -0.73709255 0.23337272 -0.7868761
000050 8b e5 7a 3f 17 89 f2 bf eb 7f b4 bd 45 9e 4d 3f
       0.98006505 -1.8948087 -0.08813461 0.80319625
000060 a8 2c d1 bf 9d 7f 5c bf fc 4b d0 be 54 33 e5 bd
       -1.6341753 -0.8613222 -0.4068297 -0.11191431
000070 dc ed 47 3f 37 5e 7a bd ea 35 89 3d a3 34 8f be
       0.7809732 -0.061125007 0.066997364 -0.27969846
000080 98 d7 dc 3e 7c fb 2a bf c6 d7 90 be 0c 17 8f be
       0.43133235 -0.66789985 -0.28289622 -0.2794727
000090 71 b2 2c bd f7 8d 25 3d 84 42 6b 3e 0e ec e4 3d
       -0.042162362 0.04041859 0.22974592 0.11177836
0000a0 5e 7e 8a be 19 b6 53 be a9 a9 08 3f c5 59 b8 3e
       -0.27049536 -0.20674933 0.5338388 0.3600599
0000b0 45 53 14 3d 4e 27 d1 bc 45 51 80 be 0c f8 62 bf
       0.036212225 -0.025531437 -0.25062004 -0.8865974
0000c0 7d 8b c7 be 0e 7d 66 3f 4a 0f b3 bf 36 75 94 3e
       -0.3897361 0.9003457 -1.3989041 0.28995675
0000d0 74 f1 04 bf 52 86 9a 3f fa 25 3f 3e cb 06 ec 3e
       -0.5193093 1.2072241 0.1866683 0.46098933
0000e0 fd ba 8d 3e 9a e6 f7 3b 60 1c 8c be f9 f3 c5 bf
       0.27681723 0.0075653316 -0.27365398 -1.546508
0000f0 2a 7f 00 bf 66 01 fc bd eb b0 97 be 07 5c e4 bc
       -0.50194037 -0.12304954 -0.29627165 -0.027875913

bn3.running_var f4 [64]
000000 8e 23 6c 3f df 6a d1 3e bc 31 e7 3e f0 0e eb 3f
       0.9224175 0.4090185 0.45155132 1.8363934
000010 ab 1f 00 3f 8d a0 10 40 39 b5 a9 3f 0f 92 02 40
       0.5004832 2.2597992 1.325843 2.0401647
000020 63 29 55 3e c4 55 6f 3e 28 50 bd 40 a7 12 c1 40
       0.20816569 0.2337256 5.9160347 6.033527
000030 b2 2d 94 3e 2d 61 55 41 94 ec ca 3f 79 13 8f 40
       0.28941113 13.336225 1.5853448 4.471127
000040 a4 48 0f 40 77 25 9e 3f 48 1d 28 40 3b da 93 3e
       2.2388086 1.2355183 2.6267872 0.28877434
000050 ba 34 63 40 27 e0 b7 40 fa 55 f5 3e 17 c1 91 40
       3.5500932 5.7461123 0.47917157 4.5548205
000060 03 92 d0 40 43 89 12 40 67 67 16 3f 35 d2 0a 3f
       6.5178237 2.2896278 0.5875153 0.54227
000070 b4 7d 11 40 ea 78 cf 3f d9 52 98 3f df c1 61 3f
       2.2732973 1.6208775 1.1900283 0.8818645
000080 6a ab c9 3e 32 61 af 3e 45 0b e6 3e 5d eb aa 3e
       0.3938859 0.34253842 0.44930473 0.33382693
000090 48 94 f6 3e 44 03 d0 3e f4 c4 a2 3f a4 a2 61 3f
       0.48160005 0.4062749 1.2716355 0.88138795
0000a0 f4 f2 5f 3f 50 c1 df 3e 52 16 62 3f f6 42 c7 3f
       0.8748009 0.43702173 0.8831531 1.556731
0000b0 9c f0 09 3f d2 74 59 3e 00 64 b9 3f de 30 d9 3e
       0.53882766 0.2123597 1.4483643 0.42420095
0000c0 5d a6 fb 3e b5 03 0a 40 9e 5a 51 41 da e5 09 3f
       0.49150363 2.1564763 13.084623 0.5386635
0000d0 bb 06 3a 3f 3f c1 4e 41 4a 87 58 3e 64 5d 14 40
       0.7266652 12.922179 0.21145359 2.3182
0000e0 d7 7d 1c 3f f0 e2 1c 3e 67 b1 f2 3f 1d af 2a 41
       0.61129516 0.15320945 1.8960389 10.667752
0000f0 74 ff 04 3f 2a 56 89 3e f5 a9 9c 3e 0b 48 0a 3f
       0.5195229 0.2682355 0.30598417 0.5401618

fc1.weight f4 [32, 64]
000000 5c 5b 09 3e 84 bb 2d 3d 45 be 7c 3d 70 7f 58 bd
       0.13413757 0.042415157 0.061704893 -0.05285591
000010 df 1e 6b 3d d3 0d 10 be 50 ed 52 3d 98 8a ff bc
       0.057402488 -0.14067774 0.05149585 -0.031194016
000020 ab a0 15 be af 9c 01 3d 1d 2c 27 be 07 7f b1 bd
       -0.14612071 0.031643566 -0.16325422 -0.08666807
000030 56 4c a3 bd 07 6b 9d 3d a5 fd 88 be 03 dc 65 bd
       -0.07973544 0.076864295 -0.26756015 -0.056118023
000040 b2 12 13 bc 80 81 aa 3e fc 02 cf ba c2 ef c1 bd
       -0.008976625 0.33301926 -0.0015793736 -0.09469558
000050 68 dd 8d be 08 c6 0e 3e 35 d6 73 3e 55 dd 13 bd
       -0.27707982 0.1394273 0.23812182 -0.03609975
000060 62 a0 82 3e 07 2c cb 3e 9a 6c 9b 3c f3 c7 51 3e
       0.25512987 0.39682028 0.018972684 0.20486431
000070 c6 0b 2a be 4d 45 70 bb a4 2e 48 bc 1f 21 41 3c
       -0.16606054 -0.00366624 -0.012218151 0.011787682
000080 53 77 2c bd f5 3c 4f bd 7a 5f 7c bd 91 34 02 3e
       -0.042105984 -0.050595243 -0.06161449 0.12715365
000090 ba 13 80 bd 67 88 7a bd 5a 96 22 3e 73 d1 40 3e
       -0.062537625 -0.06116524 0.15877667 0.18829899
0000a0 9a ef 04 3e 3c d8 a3 3c 02 a7 97 3c d6 6e 18 be
       0.12982026 0.02000057 0.018512253 -0.1488603
0000b0 98 03 d3 3d 6b e7 31 be f8 32 01 3f d9 5d 5d 3e
       0.1030342 -0.17373435 0.504684 0.21617831
0000c0 e8 6d 99 3d 3f f1 78 be 35 91 1d 3d 94 d9 06 be
       0.07491666 -0.24310778 0.03846856 -0.13168937
0000d0 85 a2 41 3d 52 04 9d bd de 3e e1 bd 12 59 4e 3b
       0.04727413 -0.0766684 -0.10998319 0.0031486196
0000e0 3d 2e 88 3e fb 48 15 bf 48 ba 53 be a7 11 f5 3c
       0.26597777 -0.58314484 -0.2067653 0.029915644
0000f0 67 a9 8a 3e 88 85 8a bd 64 ff 02 3f b2 69 f6 bc
       0.2708237 -0.0676375 0.51170945 -0.030079696
000100 ed b0 0c be 44 e8 4e 3b 9e 1e dd bd ce f1 af bd
       -0.13739367 0.0031571547 -0.107968554 -0.085910425
000110 3a 7b 20 3e 2d b3 57 be 83 a9 0f 3e 2a e7 6e 3e
       0.15672007 -0.21064444 0.14029507 0.2333037
000120 4f 68 b1 3d da fe ca be 40 bd a6 3c 5e 6d e5 3c
       0.086624734 -0.3964756 0.020353913 0.028006252
000130 8f 77 09 3e e8 d5 8f 3e c2 e4 3b 3e 84 d8 39 be
       0.13424514 0.28092885 0.18348983 -0.18149
000140 dc 53 ed bd b3 32 25 3e 63 4a 89 3d 9e 80 3d be
       -0.115882605 0.16132621 0.06703641 -0.18506095
000150 22 ee 62 bd 53 67 db bd 79 b0 52 3e e3 50 01 3e
       -0.055402882 -0.10713067 0.20575131 0.12628512
000160 e9 d0 fd bd 6c ad 17 be 24 88 82 be e4 62 a6 3b
       -0.12393362 -0.14812249 -0.25494492 0.0050777066
000170 1c 1f b3 3a 5a 30 9c be 98 73 bd bd 66 61 e6 3d
       0.0013665888 -0.3050564 -0.092505634 0.11249046
000180 e3 13 3b be 94 6f 09 3e 1e 35 4b be 40 b6 54 be
       -0.18269305 0.1342147 -0.19844481 -0.20772648
000190 a6 11 0f bd a5 5c 0c be d4 fe 29 bd 6b 2f cf be
       -0.03492894 -0.13707216 -0.04150279 -0.40465865
0001a0 86 81 eb bd e3 91 89 3d 13 de 3b 3d d4 42 a6 bd
       -0.11499314 0.06717279 0.045866083 -0.08118215
0001b0 d7 fa 59 be 82 c5 19 be f9 bc 32 3e 4c 5b b0 3d
       -0.21287094 -0.1501675 0.174549 0.086111635
0001c0 b8 2b 5a be 94 09 c4 3e b0 87 c5 3c c5 d6 2f be
       -0.2130574 0.38288558 0.024112552 -0.17171772
0001d0 fc 94 dc be 4d 20 6c 3e 11 a9 f3 bd f1 ea 4d be
       -0.43082416 0.23059197 -0.11897481 -0.20109154
0001e0 09 76 2e 3c d5 2d 30 bd f3 f8 b3 3e 76 6b 9d bd
       0.010648259 -0.04301246 0.3515087 -0.07686512
0001f0 07 7c 04 3d 6c e3 ea bd ac 28 99 bd 2e e4 01 3c
       0.032344844 -0.114691585 -0.07478461 0.007927937
000200 86 bd 80 3e a0 03 b8 3d c9 9b ae 3e 25 aa 89 be
       0.25144595 0.089850664 0.3410323 -0.26887622
000210 39 c0 3e be 09 38 12 bd 10 e7 d6 be 2d aa db bc
       -0.18628015 -0.03569797 -0.41973162 -0.026814545
000220 e9 c2 4e 3e fd c2 8f 3d c2 3a 74 3d 4a 51 7d 3d
       0.2019154 0.07019613 0.05962635 0.0618451
000230 45 03 79 3d 12 eb 7b bd 03 04 cb bd 05 d7 96 be
       0.060794134 -0.061503477 -0.099128745 -0.29460922
000240 85 c1 f1 bc 63 72 2c 3d b8 1e 0f be 04 10 c5 3d
       -0.029511223 0.042101275 -0.13976562 0.09622195
000250 ac 3d 97 3e aa 33 b1 bd 1b 7b 6a be 90 3a 90 3b
       0.2953924 -0.08652432 -0.22898524 0.0044015124
000260 28 38 10 bd 61 af 87 3d 80 62 97 3d ba 70 e3 3d
       -0.035209805 0.06625248 0.07391834 0.11105485
000270 8a 94 83 3d 50 dc 77 be 3d 58 39 3d 11 17 ac 3e
       0.06424816 -0.24205136 0.045250166 0.33611348
000280 7f e8 80 bd fb 33 6d be 7f 73 b6 3a 91 43 6c be
       -0.06294345 -0.2316436 0.0013919919 -0.2307265
000290 f9 ac 9c bd cf 24 7b be f3 d6 72 be 8d e0 84 3e
       -0.076501794 -0.2452576 -0.23714809 0.2595257
0002a0 2e e5 6d 3d 39 00 78 be f7 e6 41 3e f5 a2 3f be
       0.05807989 -0.24218835 0.18935762 -0.18714507
0002b0 04 c6 85 3e f2 88 f5 bc 16 79 c9 be 8c 42 8f 3e
       0.26127636 -0.029972527 -0.39350194 0.2798046
0002c0 81 a0 49 be 36 04 55 bd ef 4e 70 3d e7 5e 9c 3e
       -0.19690134 -0.05200597 0.058669027 0.30541155
0002d0 79 90 6c be 2f 56 e6 bc b0 9b a9 3e 5a 25 3f be
       -0.23101987 -0.028117267 0.33126593 -0.18666592
0002e0 b9 52 d3 bd 8c e8 53 3e 9f 8c ae 3e e6 70 f3 3d
       -0.103185125 0.20694178 0.3409166 0.11886768
0002f0 30 e8 66 3e 80 fc 19 be f4 70 8e 3e 8f b9 02 bd
       0.2254951 -0.15037727 0.2782055 -0.031915244
000300 11 f0 bc bd 6a 32 20 be 35 0b 19 be 29 7a 86 3c
       -0.092254765 -0.15644231 -0.14945681 0.016415672
000310 e5 ab dd 3d a0 d4 df 3c 51 e2 d6 3c 1e 12 0c 3d
       0.10823802 0.027323067 0.026230963 0.034196965
000320 d0 63 6f be da 1f 88 3e 65 de d9 bd 43 00 1a 3e
       -0.23377919 0.265868 -0.106381215 0.15039162
000330 31 e4 b3 bd 5c b5 bd be c1 f3 bd 3e 91 97 8f be
       -0.087837584 -0.3705243 0.37100032 -0.28045323
000340 d7 63 5c 3e 5d ad 04 bc a3 49 4d be cc 15 93 bd
       0.21522461 -0.008097974 -0.20047621 -0.07181892
000350 e5 d6 01 be 2a 7b ee 3c ce a6 6d 3e d2 90 45 be
       -0.12679632 0.029111464 0.23208162 -0.19293526
000360 2c 27 d3 bd c4 08 66 be 26 a1 60 bc 00 84 6d 3d
       -0.10310206 -0.22464281 -0.013710296 0.057987213
000370 ae c3 a7 be cb f4 03 3e 84 25 5b 3b 06 7b 7f 3e
       -0.3276648 0.1288635 0.003343911 0.24949273
000380 6c d6 b4 bd 27 32 e9 3d 75 07 69 bd d8 14 4a 3e
       -0.0882996 0.11386519 -0.056891877 0.19734514
000390 71 2a 96 bd 87 0d 84 3d cd 6a f7 bd 99 eb 17 be
       -0.07332314 0.06447893 -0.120809175 -0.14835967
0003a0 93 24 05 3d 11 3f 36 3c 1e 65 1a 3d c5 05 07 3d
       0.032505583 0.011123435 0.03769409 0.032964487
0003b0 a1 9b 82 bc 6d 45 24 be 45 a9 d3 be 44 73 88 be
       -0.01594335 -0.16042109 -0.4134008 -0.2665044
0003c0 91 54 9e 3d 16 d6 29 3d 3a 4c e9 3c 1e 2f 32 be
       0.077309735 0.041463934 0.02847873 -0.17400786
0003d0 00 45 35 bd 77 22 06 be 06 4c a3 3e e0 d0 69 3e
       -0.044255257 -0.13099085 0.3189394 0.22833586
0003e0 be a8 67 be 5c 9f 0f bd e5 8f 04 3d 75 7c 8a be
       -0.22622964 -0.035064086 0.03236379 -0.27048078
0003f0 72 28 e3 38 9a 24 f3 3d 04 d0 a2 3d 18 49 c3 bd
       0.00010831737 0.118722156 0.07949832 -0.09535426

fc1.bias f4 [32]
000000 20 49 9b 3c 9e f0 28 bc f7 5c 33 bb ce 05 2c bd
       0.018955767 -0.010311274 -0.0027368644 -0.041997723
000010 4c 21 b2 bc 45 85 62 3d c8 51 8a bb 11 08 97 ba
       -0.021744393 0.055302877 -0.004221175 -0.001152279
000020 58 2b 96 3c de 70 1e bc 10 f8 29 3a 09 96 a6 bc
       0.018331215 -0.009670464 0.00064838026 -0.020335214
000030 f6 41 6f bc bf 90 05 3d e7 0d 82 3b 39 e1 7d 3b
       -0.014603129 0.032608744 0.0039689424 0.003873898
000040 e9 6a 9f bc 7d 42 72 bd b5 5f 9f 3c f0 e6 8c 3d
       -0.019460158 -0.05914544 0.019454816 0.06879985
000050 07 8c 4e bc e0 41 fd bb 50 4a 3f bc 3e a7 a2 3c
       -0.012606627 -0.0077288 -0.011675432 0.019855138
000060 ec 06 d3 bc 90 7c 03 3d 98 ab 04 3d 08 ab ac 3b
       -0.025760137 0.032101214 0.032390207 0.005269412
000070 4a 80 2c bc 79 8c b1 3c 10 46 c4 3c 88 e0 49 bc
       -0.010528633 0.021673428 0.02395919 -0.012321599

fc2.weight f4 [4, 32]
000000 b1 96 2c 3f 19 6c 1e 3e 97 bc d5 be 84 c5 9f 3d
       0.67417437 0.15470923 -0.41745445 0.07801345
000010 35 46 97 bb c2 4a 21 be b9 77 a2 bc fd fc 17 3d
       -0.0046165236 -0.15751174 -0.019832479 0.037106503
000020 12 df a5 3e 26 30 ec bd 50 3e 80 3c 26 3d aa be
       0.32396752 -0.11532621 0.015654713 -0.33249778
000030 31 86 3a 3e 08 d0 3e bd 15 81 53 be 99 27 3b be
       0.18215252 -0.046585113 -0.2065471 -0.18276824
000040 fc 04 06 bd b3 5a 86 3b 04 9d 2b 3e d0 73 9b 3e
       -0.032719597 0.0041001677 0.16759115 0.30361795
000050 6e 02 5a be 02 a1 85 be 37 22 2b be f5 11 3c 3e
       -0.2128999 -0.26099402 -0.1671227 0.18366225
000060 41 60 80 3e 06 ef 9c be c3 72 17 3e a0 0f e9 bd
       0.25073436 -0.3065111 0.14789872 -0.11379933
000070 6f f1 d8 be ca 80 d5 3e 29 ba 10 3d fa 0f 31 be
       -0.423717 0.4169982 0.035333786 -0.17291251
000080 66 5f 22 be 80 54 a4 3d 42 25 ac bd 6c b7 da bb
       -0.15856704 0.080239296 -0.08405544 -0.0066746976
000090 6d 3d ee bd 9c d4 1f 3e 77 77 68 3e b0 3a 2a 3f
       -0.1163281 0.15608448 0.22701822 0.664958
0000a0 b1 9b 90 be 48 83 54 bc 96 28 09 3f 8f c9 62 3d
       -0.28243783 -0.012970753 0.53577554 0.055368003
0000b0 26 dd 10 3d 07 ee 85 bd fd df 05 3d 4c ca 37 be
       0.035367154 -0.06539541 0.032684315 -0.17948264
0000c0 87 22 c9 be 59 ae d1 3e 8a e5 b5 3d c9 85 2d bf
       -0.39284155 0.4095333 0.08881672 -0.67782265
0000d0 83 53 27 3f 5f bd f2 3e 89 d9 b9 3d ba 3d 35 be
       0.65361804 0.47410104 0.09074695 -0.17699328
0000e0 07 b6 13 3e b5 4b 99 be 85 5d 4b be cf a3 c5 3d
       0.14424907 -0.29940572 -0.19859894 0.09650385
0000f0 ad 64 bb 3d a0 bf 93 be bb 5b 7e be 1d 46 47 be
       0.09150062 -0.28857136 -0.2483968 -0.1946034
000100 2e 4a 52 be 2a 18 82 3d c5 69 86 3e 3a f4 ae bd
       -0.2053611 0.06352265 0.2625257 -0.08542676
000110 28 85 d3 3d 31 b8 a3 3e 65 8c 05 be 98 96 fb bc
       0.10328132 0.31976464 -0.13041838 -0.030711457
000120 f2 12 a7 be 83 2e 4a be 19 25 49 3e 80 0c 74 3d
       -0.32631642 -0.19744305 0.19643058 0.059582233
000130 8b f8 31 be 3a 0c c6 3d 23 b9 a8 3e dd 96 42 3e
       -0.17379968 0.09670301 0.32953748 0.19002862
000140 40 fd d6 3e e3 98 bf be 0b 55 8f bd d0 0a ad 3e
       0.4199009 -0.3742133 -0.069986425 0.33797312
000150 00 37 a2 3e 61 cb 32 3e d1 12 31 be 76 58 75 be
       0.31682587 0.17460395 -0.17292334 -0.23959526
000160 ad 7b d2 be 6f cf c4 be 05 e8 f5 3e 30 9c f6 be
       -0.41109982 -0.3843951 0.4802858 -0.48166037
000170 cd 88 e5 3d d5 9e 9b be b5 2e a9 be 5e b5 29 be
       0.11207733 -0.30394617 -0.33043447 -0.16573092
000180 a5 84 0b be dc 36 a7 3e e3 98 ad 3e c9 e0 ce 3e
       -0.13624819 0.32659042 0.33905706 0.40405872
000190 45 8f 0b 3e 7d d1 9f bd b8 94 34 3d fc 45 76 3e
       0.13628872 -0.078036286 0.04408714 0.24050134
0001a0 ef 72 10 be 8d 16 71 3e 26 84 2f 3c 8c 1d 82 be
       -0.14106344 0.23543759 0.010712659 -0.25413167
0001b0 2c 8e 89 3e f9 c1 c9 be 85 6d e2 be a5 1e ee 3e
       0.2686628 -0.39405802 -0.44224182 0.46507755
0001c0 6a 4e 8b bd 1d 9e 09 3e 1f 92 ab 3d b6 a0 35 3e
       -0.06802066 0.13439222 0.0837748 0.17737088
0001d0 89 c0 ee 3e 38 1a 6a 3e 99 7c 26 be 55 fc 8f be
       0.46631268 0.22861564 -0.16258468 -0.28122202
0001e0 85 2b 83 3e 64 f2 e3 be cb ae 87 bd 5e c8 94 bd
       0.2561914 -0.44520867 -0.06625136 -0.072647795
0001f0 cd b7 0c 3e ba 06 97 be 29 16 c9 3e 3e fe 29 be
       0.1374199 -0.2949732 0.3927472 -0.16600892

fc2.bias f4 [4]
000000 2c 90 94 3c 16 a0 6b bb 5f ce 99 bc c5 ff ff bc
       0.018135153 -0.0035953573 -0.018775163 -0.03124989
